…
2023-01-17 04:04:49.990883: I tensorflow/core/common_runtime/pluggable_device/pluggable_device_factory.cc:272] Created TensorFlow device (/job:localhost/replica:0/task:0/device:GPU:0 with 0 MB memory) -> physical PluggableDevice (device: 0, name: METAL, pci bus id: <undefined>)
Model: "model"
__________________________________________________________________________________________________
 Layer (type)                   Output Shape         Param #     Connected to
==================================================================================================
 input_1 (InputLayer)           [(None, 12)]         0           []

 embedding (Embedding)          (None, 12, 128)      1440000     ['input_1[0][0]']

 dropout (Dropout)              (None, 12, 128)      0           ['embedding[0][0]']

 conv1d (Conv1D)                (None, 10, 128)      49280       ['dropout[0][0]']

 conv1d_1 (Conv1D)              (None, 9, 128)       65664       ['dropout[0][0]']

 conv1d_2 (Conv1D)              (None, 8, 128)       82048       ['dropout[0][0]']

 global_max_pooling1d (GlobalMa  (None, 128)         0           ['conv1d[0][0]']
 xPooling1D)

 global_max_pooling1d_1 (Global  (None, 128)         0           ['conv1d_1[0][0]']
 MaxPooling1D)

 global_max_pooling1d_2 (Global  (None, 128)         0           ['conv1d_2[0][0]']
 MaxPooling1D)

 concatenate (Concatenate)      (None, 384)          0           ['global_max_pooling1d[0][0]',
                                                                  'global_max_pooling1d_1[0][0]',
                                                                  'global_max_pooling1d_2[0][0]']

 dense (Dense)                  (None, 128)          49280       ['concatenate[0][0]']

 dropout_1 (Dropout)            (None, 128)          0           ['dense[0][0]']

 logits (Dense)                 (None, 3)            387         ['dropout_1[0][0]']

 dense_1 (Dense)                (None, 3)            12          ['logits[0][0]']

==================================================================================================
Total params: 1,686,671
Trainable params: 1,686,671
Non-trainable params: 0
__________________________________________________________________________________________________
None
Epoch 1/5
2023-01-17 04:04:50.748287: W tensorflow/tsl/platform/profile_utils/cpu_utils.cc:128] Failed to get CPU frequency: 0 Hz
…
